pth/Sandiego-sub_band-100/CCN.pth (torch, 8571 bytes, 9 tensors)

Conv.0.Conv1.0.weight f4 [1, 2, 3]
0.057301845 -0.6268352 0.12790921 -0.09520462 0.23158874 0.7173712
00000000: 57b5 6a3d 4678 20bf a2fa 023e a4fa c2bd
00000010: 9925 6d3e a4a5 373f

Conv.0.Conv2.0.weight f4 [1, 2, 3]
0.024505772 -0.03354898 0.21820524 -0.20832519 0.22706905 -0.6267611
00000000: 54c0 c83c a86a 09bd 3271 5f3e 3353 55be
00000010: ca84 683e 6a73 20bf

Conv.1.Conv1.0.weight f4 [1, 2, 3]
0.22758774 -0.44712764 -0.12570634 -0.6351806 0.07953431 -0.021628616
00000000: c30c 693e eaed e4be 2ab9 00be 329b 22bf
00000010: e2e2 a23d 7f2e b1bc

Conv.1.Conv2.0.weight f4 [1, 2, 3]
-0.13662691 -0.24056369 -0.06184233 0.04388212 0.69508106 0.19702064
00000000: ede7 0bbe 5456 76be 624e 7dbd bdbd 333d
00000010: d5f0 313f c7bf 493e

MLP.0.weight f4 [20, 40]
0.08232719 -0.03709491 0.101907894 0.03354389 0.12678 0.039748188 0.0969926 0.033515207
-0.09740609 0.118012205 -0.10354148 -0.07451305 0.15550752 0.047791306 0.04398893 0.011284712
-0.04517468 0.11853647 0.109625526 -0.04965218 0.30562872 0.025846934 -0.15877478 0.22496948
-0.3569998 0.11768761 0.08417576 0.448903 0.044162657 0.1921767 0.043921996 -0.023453748
-0.24615906 -0.11582835 0.09679363 0.16521296 0.08607056 -0.7388124 -0.2088177 0.27673125
0.08178184 -0.026017047 0.09489261 -0.067844585 0.036501314 0.08265552 -0.07606193 -0.049745556
0.0847308 0.07946811 0.027453134 0.058938734 -0.086270854 0.02295355 -0.08000391 0.11339523
-0.07350147 0.12532522 0.08550495 -0.022391304 -0.032614093 -0.19768947 -0.18234433 0.23371042
-0.22179607 -0.04530382 -0.06221624 0.5595049 -0.08551555 0.37224072 0.09222814 0.07954968
-0.37755856 -0.24210261 -0.049517054 -0.0061757197 0.12751536 -0.7252088 0.018283937 0.3253979
0.071605444 0.07764385 0.06798731 0.2261917 0.06449828 -0.055831496 0.011976479 0.008987174
0.12510405 -0.023130054 2.7768612e-05 0.12014498 0.051244672 0.17894049 0.037654106 -0.0076893396
-0.047410812 -0.016415717 0.06942724 -0.0280116 0.16644056 -0.06959235 -0.29419473 0.058747016
-0.21172988 0.16776764 -0.18675831 0.49050942 -0.001518963 0.13672452 -0.0037315188 -0.06555955
-0.3400631 -0.14913116 -0.048081968 0.18840471 -0.06867714 -0.865461 -0.009223417 0.3081067
0.1166984 -0.10966208 -0.065756865 0.087535426 -0.09542244 0.1396531 0.041084155 0.056625456
0.1440698 -0.14339297 0.010271109 -0.0119536435 0.16011995 0.1098765 0.04436642 0.09685348
-0.05541409 -0.12536281 0.10912152 0.18651257 0.2634807 -0.0117309075 -0.3037866 0.053542018
-0.22780506 0.062150013 0.0023579919 0.58330846 0.021276327 0.5204078 -0.0021731816 -0.051188428
-0.41791597 -0.1189379 0.019243456 -0.030020474 0.095171414 -0.8866622 -0.2401711 0.29006618
0.10808038 0.14617105 0.056916732 -0.123014055 -0.05383482 -0.01742729 0.08872357 0.11104115
-0.077413976 -0.10383039 -0.030956028 -0.030997027 -0.124615006 0.101739466 -0.13527128 -0.08528684
0.08131881 -0.036501195 0.17844334 -0.0083833905 -0.17804357 -0.186694 0.027486775 0.050840363
0.34769052 0.012450495 0.03294607 -0.5345104 0.027286593 -0.34101534 0.08585878 0.08826874
0.22217022 0.07687821 -0.109699935 -0.2408119 -0.08208581 0.46225035 0.05480076 0.039060783
0.031828716 -0.05617187 -0.0132187 0.049316242 0.035818167 -0.104864605 -0.12766567 -0.033044137
0.051989798 0.13021208 -0.011389178 -0.043653704 0.012061798 0.04192637 -0.048358615 0.017679878
0.060761157 0.11275486 -0.021655614 0.09647005 -0.18643726 -0.032265864 0.047130596 -0.27021945
0.44236714 0.116588816 -0.009074633 -0.6714033 -0.052411374 -0.2912019 -0.08337577 0.14191112
0.35717615 0.21760477 0.017618408 -0.18505287 -0.16335608 0.86628187 0.019833691 -0.17106363
-0.14680606 -0.09827561 -0.1281159 -0.039691765 0.11224856 0.027485969 0.10648432 0.087131366
-0.06786743 -0.08590863 -0.0747751 -0.002029904 -0.017931068 -0.08549212 0.0426715 0.094568335
00000000: 289b a83d d5f0 17bd 16b5 d03d 5165 093d
00000010: 9ed2 013e ffce 223d 0ea4 c63d 3e47 093d
00000020: d87c c7bd 62b0 f13d 8e0d d4bd 4c9a 98bd
00000030: 5d3d 1f3e d1c0 433d bc2d 343d 83e3 383c
00000040: 1609 39bd 40c3 f23d 5983 e03d 1660 4bbd
00000050: 5e7b 9c3e f3bc d33c db95 22be 665e 663e
00000060: aec8 b6be 3406 f13d 5764 ac3d 9dd6 e53e
00000070: e7e3 343d f8c9 443e 8de7 333d 1322 c0bc
00000080: 1f11 7cbe 6a37 edbd bd3b c63d 962d 293e
00000090: c345 b03d cf22 3dbf 4fd4 55be b8af 8d3e
000000a0: 3d7d a73d b421 d5bc 0f57 c23d 1af2 8abd
000000b0: 6782 153d 4c47 a93d 5bc6 9bbd ffc1 4bbd
000000c0: 5787 ad3d 2dc0 a23d 65e5 e03c be69 713d
000000d0: c6ae b0bd 1509 bc3c 17d9 a3bd c23b e83d
000000e0: f087 96bd 4155 003e 381d af3d f86d b7bc
000000f0: 5b96 05bd 1c6f 4abe 79b8 3abe c951 6f3e
00000100: 821e 63be 8090 39bd 75d6 7ebd b73b 0f3f
00000110: c722 afbd 5696 be3e 1be2 bc3d f1ea a23d
00000120: 5b4f c1be bfe9 77be 65d2 4abd b15d cabb
00000130: 6393 023e 49a7 39bf 32c8 953c 8e9a a63e
00000140: e0a5 923d bd03 9f3d ee3c 8b3d cc9e 673e
00000150: ad17 843d 91af 64bd fe38 443c f13e 133c
00000160: 471b 003e 3d7b bdbc a4f0 e837 920e f63d
00000170: efe5 513d 2d3c 373e 313b 1a3d dbf6 fbbb
00000180: d731 42bd 417a 86bc de2f 8e3d 9578 e5bc
00000190: 656f 2a3e 6f86 8ebd b1a0 96be b6a0 703d
000001a0: b8cf 58be 48cb 2b3e 923d 3fbe 0d24 fb3e
000001b0: f117 c7ba 8301 0c3e 7f8c 74bb 1644 86bd
000001c0: c01c aebe d7b5 18be 99f1 44bd 2aed 403e
000001d0: 9aa6 8cbd da8e 5dbf d11d 17bc 29c0 9d3e
000001e0: 92ff ee3d 8396 e0bd 89ab 86bd c645 b33d
000001f0: d76c c3bd 3901 0f3e dc47 283d 18f0 673d
00000200: 0987 133e 9bd5 12be 2748 283c 37d9 43bc
00000210: 7cf6 233e ee06 e13d 90b9 353d 1e5b c63d
00000220: e3f9 62bd 1c5f 00be 1a7b df3d 27fd 3e3e
00000230: f1e6 863e fe32 40bc eb89 9bbe e04e 5b3d
00000240: bb45 69be 0391 7e3d 8a88 1a3b b453 153f
00000250: b14b ae3c 7239 053f f06b 0ebb f5aa 51bd
00000260: 15f9 d5be b795 f3bd 74a4 9d3c 7fed f5bc
00000270: 3be9 c23d 4bfc 62bf 6aef 75be 8e83 943e
00000280: 3f59 dd3d ddad 153e 8521 693d cbee fbbd
00000290: e681 5cbd adc3 8ebc b4b4 b53d 8b69 e33d
000002a0: 388b 9ebd 07a5 d4bd 7f97 fdbc 7aed fdbc
000002b0: 2736 ffbd c85c d03d 8e84 0abe deaa aebd
000002c0: 7a8a a63d 4782 15bd dab9 363e 7d5a 09bc
000002d0: 0e51 36be b62c 3fbe f22b e13c fc3d 503d
000002e0: 7e04 b23e 29fd 4b3c 75f2 063d acd5 08bf
000002f0: 2288 df3c 9099 aebe bad6 af3d 3ec6 b43d
00000300: 9780 633e 5372 9d3d 5caa e0bd 6597 76be
00000310: 9b1c a8bd 14ac ec3e c376 603d 33fe 1f3d
00000320: d45e 023d 7a14 66bd 3f93 58bc d4ff 493d
00000330: 12b6 123d 41c3 d6bd caba 02be 4a59 07bd
00000340: 41f3 543d 5156 053e ad99 3abc 3ace 32bd
00000350: d99e 453c fcba 2b3d af13 46bd 64d5 903c
00000360: b1e0 783d 05ec e63d 1d67 b1bc 1792 c53d
00000370: 69e9 3ebe 3629 04bd 030c 413d 345a 8abe
00000380: f27d e23e 1ec6 ee3d c5ad 14bc 16e1 2bbf
00000390: 4fad 56bd 6a18 95be eac0 aabd 2651 113e
000003a0: cbdf b63e c9d3 5e3e 7b54 903c 807e 3dbe
000003b0: d146 27be a6c4 5d3f 447a a23c 4e2b 2fbe
000003c0: 5454 16be b944 c9bd d130 03be d593 22bd
000003d0: 93e2 e53d 412a e13c 7314 da3d ee71 b23d
000003e0: 14fe 8abd ddf0 afbd b023 99bd 2308 05bb
000003f0: 2de4 92bc 7e16 afbd 50c8 2e3d 0bad c13d

MLP.0.bias f4 [20]
-0.025981242 0.18066743 0.106684424 0.2034584 -0.07440598 -0.18669635 -0.08207644 0.22612512
-0.14487585 0.16470854 -0.114582054 -0.064069025 -0.24949518 -0.052803665 -0.22035056 -0.12917212
0.002485948 -0.19769098 0.09505643 -0.26704353
00000000: 9dd6 d4bc e200 393e 5d7d da3d 6657 503e
00000010: 2a62 98bd 542d 3fbe b117 a8bd 588d 673e
00000020: 565a 14be 5ba9 283e ffa9 eabd 9f36 83bd
00000030: aa7b 7fbe a848 58bd 94a3 61be b245 04be
00000040: 49eb 223b 816f 4abe f2ac c23d eeb9 88be

MLP.2.weight f4 [10, 20]
0.2798242 0.34430647 0.3793549 0.40949193 -0.34425345 -0.7228501 -0.4869569 0.41928867
-0.86335397 0.49589077 0.11689905 -0.1839778 -0.707056 0.03527151 -0.42342415 -0.2176519
0.003839007 -0.43610838 0.5630877 -0.59183234 0.056598797 0.39227676 0.393854 0.46700236
-0.13736255 -0.41791922 -0.3877339 0.09412888 -0.75970155 0.44977376 -0.13560994 -0.29472098
-0.7820551 -0.054579806 -0.47418556 -0.13796534 -0.09092539 -0.29245475 0.5596794 -0.48294714
0.11677669 -0.11929014 0.05672747 -0.31054607 0.18665478 0.664787 0.78825754 -0.2709984
0.61439097 -0.43987685 -0.11169713 0.4164223 0.925149 0.10955622 0.7679879 0.11248736
0.00096527033 0.40033787 -0.58037835 0.7781746 -0.1893607 -0.24352919 0.110255025 -0.37841734
0.31627893 0.6495203 0.55196506 -0.171131 0.8584631 -0.47355184 -0.1288725 0.27672297
0.69237214 -0.2243846 0.7833539 0.40861052 0.2570949 0.4336062 -0.30524537 0.56194645
-0.029135827 0.14716429 0.24072997 0.44630355 -0.097199135 -0.46298915 -0.22632721 0.0982912
-0.7183917 0.4965824 0.11096054 -0.23312841 -0.42475 -0.13848576 -0.41333997 -0.07668564
-0.18398735 -0.48427677 0.5227296 -0.39149764 -0.108177476 0.15493336 0.17438118 -0.09551465
0.18366179 -0.12536275 -0.12615512 0.1672782 -0.16243461 -0.011542922 -0.13757026 0.059661236
-0.18653762 -0.022615172 -0.12827232 -0.22809874 -0.13362499 -0.36825383 0.28277323 -0.06616809
0.028007863 -0.14520408 0.018378088 -0.5008148 0.35431638 0.8103748 0.53760123 -0.043518867
0.9514126 -0.6680086 0.13403353 0.49711573 1.0273418 0.06764836 0.69596887 0.12595627
0.25196636 0.4444859 -0.53027296 0.94545794 0.2761021 0.17685753 0.35862526 0.27188453
-0.016042186 -0.68137413 -0.5001372 0.13221915 -0.8151437 0.44747493 -0.08894949 -0.080809616
-0.70044684 -0.066418394 -0.4545875 -0.19300541 -0.14763476 -0.47402304 0.58880186 -0.42352694
-0.20722444 0.041641645 0.056908026 -0.4960155 0.27664658 0.5407728 0.52873355 -0.10471286
0.94811296 -0.5492253 0.004462002 0.45091826 0.6700264 -0.082442746 0.7291494 0.34801883
0.19981894 0.6638654 -0.59678084 0.55726105 -0.04503545 0.2555713 0.1414366 0.4293853
-0.27565452 -0.63645405 -0.4417227 0.23738903 -0.39152825 0.3686492 -0.06844595 -0.16140059
-0.7420942 0.11983759 -0.059227556 -0.04575567 0.12066176 -0.19720136 0.5155753 -0.51449287
00000000: 1e45 8f3e f048 b03e ce3a c23e eda8 d13e
00000010: fd41 b0be b40c 39bf 6a52 f9be 01ad d63e
00000020: c404 5dbf 65e5 fd3e c568 ef3d ad64 3cbe
00000030: 9f01 35bf dc78 103d 0dcb d8be 24e0 5ebe
00000040: da97 7b3b 9949 dfbe 8426 103f 5382 17bf
00000050: 24d4 673d 80d8 c83e 3ba7 c93e ef1a ef3e
00000060: c5a8 0cbe 82f9 d5be 0f85 c6be a4c6 c03d
00000070: cd7b 42bf bf48 e63e 55dd 0abe abe5 96be
00000080: c334 48bf 138f 5fbd 73c8 f2be c946 0dbe
00000090: 1737 babd a1bc 95be 2647 0f3f d944 f7be
000000a0: 9e28 ef3d 644e f4bd 105b 683d e5ff 9ebe
000000b0: 6e22 3f3e 7b2f 2a3f 3fcb 493f 4dc0 8abe
000000c0: ba48 1d3f 8a37 e1be 77c1 e4bd 4e35 d53e
000000d0: 91d6 6c3f 035f e03d db9a 443f c65f e63d
000000e0: 320a 7d3a 16f9 cc3e ad93 14bf 7336 473f
000000f0: c5e7 41be b75f 79be 63cd e13d ebbf c1be
00000100: 50ef a13e f646 263f 954d 0d3f f73c 2fbe
00000110: 3dc4 5b3f 6375 f2be 27f7 03be a2ae 8d3e
00000120: 4d3f 313f 14c5 65be e289 483f 6635 d13e
00000130: f1a1 833e a201 de3e 1f49 9cbe b9db 0f3f
00000140: 42ae eebc 3cb2 163e eb81 763e e681 e43e
00000150: 5710 c7bd ea0c edbe 52c2 67be e64c c93d
00000160: 85e8 37bf 0c40 fe3e 483f e33d 37b9 6ebe
00000170: d578 d9be 36cf 0dbe 4ca1 d3be 5c0d 9dbd
00000180: 2e67 3cbe 20f3 f7be 9bd1 053f 6172 c8be
00000190: 278c ddbd daa6 1e3e fb90 323e 2f9d c3bd
000001a0: d611 3c3e 185f 00be cf2e 01be fa4a 2b3e
000001b0: 4255 26be 861e 3dbc 38df 0cbe 575f 743d
000001c0: b803 3fbe 7443 b9bc d259 03be b792 69be
000001d0: fdd4 08be c48b bcbe a7c7 903e 2383 87bd
000001e0: bf70 e53c 61b0 14be a58d 963c 6635 00bf
000001f0: f568 b53e b974 4f3f 3ca0 093f d740 32bd
00000200: c78f 733f 9d02 2bbf 1640 093e f485 fe3e
00000210: f07f 833f 398b 8a3d 042b 323f aefa 003e
00000220: bc01 813e a893 e33e f8bf 07bf 8809 723f
00000230: 415d 8d3e 241a 353e bb9d b73e 7334 8b3e
00000240: e76a 83bc 896e 2ebf fe08 00bf 7564 073e
00000250: 42ad 50bf 6f1b e53e 262b b6bd 837f a5bd
00000260: 7c50 33bf 5e06 88bd b1bf e8be 36a3 45be
00000270: 912d 17be 26b3 f2be b8bb 163f 86d8 d8be
00000280: a532 54be 6e90 2a3d 6418 693d bef5 fdbe
00000290: 9fa4 8d3e 1670 0a3f 155b 073f b273 d6bd
000002a0: 88b7 723f 079a 0cbf fc35 923b c2de e63e
000002b0: da86 2b3f bed7 a8bd 89a9 3a3f 862f b23e
000002c0: 569d 4c3e 15f3 293f a1c6 18bf a9a8 0e3f
000002d0: 1877 38bd 3eda 823e c2d4 103e 64d8 db3e
000002e0: 9722 8dbe a7ee 22bf 7a29 e2be 1c16 733e
000002f0: 6476 c8be 97bf bc3e 642d 8cbd 3246 25be
00000300: e3f9 3dbf 696d f53d 9898 72bd 4c6a 3bbd
00000310: 831d f73d 27ef 49be befc 033f ceb5 03bf

MLP.2.bias f4 [10]
0.13987914 0.15578558 0.04758213 -0.1051661 0.30963847 0.08259388 0.064180605 0.26669303
-0.03144006 0.15246291
00000000: 7a3c 0f3e 4186 1f3e 7be5 423d 5361 d7bd
00000010: ef88 9e3e fb26 a93d 1f71 833d fd8b 883e
00000020: 4bc7 00bd 3d1f 1c3e

MLP.4.weight f4 [1, 10]
-1.311461 -1.2851698 0.7984304 1.2088662 -1.1333461 -0.2910885 0.97611624 -1.3322507
1.1782597 -0.9049729
00000000: f4dd a7bf 7280 a4bf ef65 4c3f 21bc 9a3f
00000010: 7c11 91bf 8d09 95be c1e2 793f 3187 aabf
00000020: 37d1 963f 4eac 67bf
