pth/Sandiego-sub_band-100/Transformer_Encoder.pth (torch, 185457 bytes, 20 tensors)

layers.0.self_attn.linear_q.weight f4 [20, 20]
00000000: 4662 35be 471d 393e 19b6 913d abdb 02be
00000010: 8d9f f73d 9410 91bd a869 fa3d 5045 1b3e
00000020: f6ef 1f3e 2d54 54be 43b4 c0bd 6620 943c
00000030: cabe f8bc 76f0 313e 2f5d 073e 10b6 433e
00000040: b08e 02be 4155 783d a3dd e13d b95c d73d
00000050: 9287 1ebe 3590 c0bd f699 e13d 0490 0bbe
00000060: abb3 ff3d 6eb1 98bd 5f43 1d3e f3cf 123c
00000070: 2e43 803d a69e 913d ad6a b73d e0c5 62be
00000080: c41f 96bd e4ef d93d fd73 943c 1ab5 633e
00000090: 7d6c 0ebd 3752 04be 3501 173d a528 bbbd
000000a0: edc2 f3bc 934f 693d 5df2 ffbd e713 f43d
000000b0: 39eb c4bd 11eb 2f3e 3371 dabc f423 573e
000000c0: 7c67 473e 6660 48be b625 293e 0b45 00be
000000d0: 3c53 98bd 1185 533e 9be0 83bd 70e0 4ebe
000000e0: fb8b e13d dca0 17be bcd1 5f3e 0ef2 4fbe
000000f0: a8aa 38be 6e59 e33d 81d4 143e 61d3 473e
00000100: 725c 3b3e 5f3f 903d 9d1a 263d d0ac e43c
00000110: f8d0 48be dab4 da3d 54ea 45bd f482 15be
00000120: 485f b0bb ea19 47be c4ce 583e 313c c13d
00000130: 61db 97bd ea7f 143e fae7 0e3d a264 873d
00000140: 5915 bbbd e0f0 573e 4809 76bd b9fc a3bc
00000150: feb2 47bd 7297 4c3e a69a 4fbe 5f63 14be
00000160: b761 1abe 40d3 633e f58a 193e 363c b1bd
00000170: 2b5e f2bd a731 523e 582a 023d f9d7 08be
00000180: f884 a43c 914e b93c b6ee 8e3d 8cb9 393e
00000190: 66c0 143e 91cc e73d 6011 4fbe 401f 1abe
000001a0: 794c d8bd bf35 a8bd 2dc7 cc3d 116d 10be
000001b0: b3a7 733c f674 67bc 2e36 16bd af65 b2bd
000001c0: 2f80 18be 4624 17be 6396 9f3d 1919 43be
000001d0: 908a c1bd dd85 423e a8ea 3b3e db6d aeba
000001e0: 9ade 773c 6c8c 2abe 6023 b0bd d8d1 48be
000001f0: dd91 1a3e cb10 403d 0e7a abbd 21c0 06be
00000200: 51f7 e1bd a252 4dbe 7707 e4bd caa9 153e
00000210: e90d 96bd e3a3 cabd a6b2 37be 88d7 fcbd
00000220: f581 1abd c4d9 693d c29c 353e cc36 6dbb
00000230: 35f4 b13d 5a2a 60be 4bb3 77bd 558e 3f3e
00000240: d302 5b3e bc96 4abd 5098 013d 83aa 2a3e
00000250: 204b 023d 76cd 1abe d4c5 063d ed9e aebd
00000260: a151 553e a525 1b3e 382f 55be 0f3b f73d
00000270: 1eec 85bd bda3 08be facc 763d c369 a6bd
00000280: d7b0 f0bd 17c2 a2bd da10 1e3e 515b a93d
00000290: 0b59 b6bd dce1 553d ffdc f43d a38f f33c
000002a0: 4a73 083e 3e6e 19be ba35 3ebe f422 62be
000002b0: c8dc 2c3e b8df 063e acab 0ebe c1ca d5bc
000002c0: 2306 0cbe 4947 123e 9ffe 06be ea1c 2e3e
000002d0: b414 24be 510e 4f3e e984 93bd f514 b3bd
000002e0: cd5f 493e 515e be3d 74da 193e be9f 5ebe
000002f0: cfaf 48bc d729 cdbd c0c7 f3bd 5b4f 1a3e
00000300: fcd3 51be 7b4b 2dbe 82da 333e c540 353e
00000310: 9676 263e 7484 44be ba42 053e a5ca 383e
00000320: 3023 473e e89a 5d3e 89f8 30be faf0 0e3d
00000330: 88b2 ac3d 15d6 a1bd 3105 403e 952f f8bd
00000340: b66d 883d 9b41 00be 6c05 013e 7ecd 49be
00000350: 098a 58bd ef9e 333e 72a6 a1bd 9f23 dbbc
00000360: 05be d6bd 7ae4 353e c9a7 48be 96fb cabd
00000370: f3f1 fd3d 3d22 2f3e 3c64 be3c ee72 31be
00000380: 0f5a 36be d559 b83d 8cb9 993d 9401 3f3e
00000390: 0083 3d3d 02fa 483e e020 a13c 894e 1fbe
000003a0: 876e 3cbe 7552 29bd 813f 563d 2467 f03d
000003b0: 23e2 0dbd 3010 e2bc 47dc 26be 40dd 043e
000003c0: 2158 40be 7578 3c3c 6062 433e f0f3 383d
000003d0: 527c 393e dfcc 263e f7b7 153e 94ab 283e
000003e0: 17b6 f23d cd48 26be f953 da3c aee7 c6bc
000003f0: 929d 36be ac3a 4e3e 0d87 75bc 555d 123e
-0.1771327 0.18077575 0.071148105 -0.12779109 0.12090979 -0.0708324 0.122271836 0.1516316
0.15618882 -0.20735236 -0.09409382 0.018081855 -0.030364413 0.17376885 0.1321914 0.1911242
-0.12749743 0.06062818 0.11028602 0.10515732 -0.15481403 -0.09402505 0.11015694 -0.13629156
0.12485441 -0.07455717 0.15357731 0.008960712 0.062628135 0.07110338 0.08955894 -0.22145796
-0.073302776 0.10641459 0.018121714 0.22237054 -0.03477143 -0.12921987 0.036866385 -0.09138612
-0.029756034 0.056960654 -0.12497399 0.119178586 -0.09615178 0.17179514 -0.026665306 0.21009809
0.1947307 -0.19568023 0.16518292 -0.12526338 -0.07437751 0.2065623 -0.064393245 -0.20202804
0.11013027 -0.14807457 0.21857351 -0.2030718 -0.1803385 0.11101042 0.14534189 0.19514228
0.18296984 0.07043337 0.040552724 0.027914435 -0.19610965 0.10679026 -0.048319176 -0.14600736
-0.005382452 -0.19443479 0.21172625 0.09435309 -0.0741489 0.1450192 0.0348892 0.06610991
-0.09134931 0.2108798 -0.060067445 -0.020017968 -0.048754685 0.19979647 -0.20273837 -0.14491032
-0.15076338 0.22248554 0.14994414 -0.086540624 -0.11834367 0.20526753 0.031778663 -0.13363637
0.020082936 0.022620471 0.06979124 0.18137187 0.14526519 0.11318315 -0.20221472 -0.15050983
-0.10561461 -0.08213376 0.09998927 -0.14104106 0.014871526 -0.014127007 -0.036672764 -0.08710801
-0.14892648 -0.14759931 0.07792356 -0.19052543 -0.09450257 0.18996377 0.18351233 -0.0013307886
0.015128756 -0.16655129 -0.08600497 -0.19611299 0.15094705 0.046891015 -0.083728895 -0.13159229
-0.110335 -0.20051053 -0.11134236 0.1461555 -0.07326872 -0.0989454 -0.17939243 -0.12345797
-0.037721593 0.057092443 0.1773558 -0.0036195992 0.08689157 -0.21891156 -0.06047372 0.18706639
0.21387796 -0.049460158 0.031639397 0.16666608 0.031809926 -0.1511744 0.032903507 -0.085264064
0.2083192 0.15151079 -0.20818794 0.120718114 -0.065391764 -0.13343711 0.060254075 -0.08125641
-0.117524795 -0.07947176 0.15436116 0.0826937 -0.08903702 0.05221735 0.11956214 0.029731577
0.1332523 -0.1498346 -0.18575183 -0.22083646 0.16881096 0.1317128 -0.13932675 -0.026097657
-0.13674216 0.14285006 -0.13183068 0.17003217 -0.16023523 0.20220305 -0.07203085 -0.087442316
0.19665451 0.09295333 0.1502474 -0.21740624 -0.012248947 -0.10017746 -0.11903334 0.15069334
-0.20491022 -0.16923325 0.17563823 0.17700489 0.16256174 -0.19191152 0.13013735 0.18046053
0.19447017 0.21641123 -0.17282309 0.034897782 0.0843249 -0.07902161 0.1875198 -0.121184506
0.06661551 -0.12525027 0.12599725 -0.19707295 -0.052866016 0.17541097 -0.07893075 -0.026750384
-0.10485462 0.17762938 -0.19595255 -0.099112675 0.12399664 0.17102905 0.023241155 -0.17328998
-0.17807792 0.09001509 0.075060934 0.18652946 0.04626751 0.1962662 0.019668996 -0.15557303
-0.18401538 -0.041338403 0.052306656 0.117384225 -0.03463949 -0.02759561 -0.16294967 0.12975025
-0.18783619 0.011503329 0.19080496 0.045154512 0.1811383 0.1628909 0.14620958 0.16471702
0.11851137 -0.16238709 0.02665137 -0.024280395 -0.17833546 0.20139569 -0.014985812 0.14293416

layers.0.self_attn.linear_q.bias f4 [20]
00000000: 7151 3ebe 8566 9e3d dea9 b3bd 009d 3fbe
00000010: e31d 9abd 644b 163e 2d23 26bd c552 593d
00000020: 83af 313e c8ed 0b3c 0c1d 533e bf68 1c3e
00000030: 2716 4cbd 0a2b c43d 88c9 2bbb 1c80 d53d
00000040: 4f13 a63b 284a 27be ecfc a83d 640b 10be
-0.18585755 0.07734398 -0.08772634 -0.18712234 -0.07525232 0.14677197 -0.04056089 0.05305745
0.17352109 0.008540578 0.20616549 0.15274332 -0.049825814 0.095785215 -0.0026212651 0.104248255
0.0050682197 -0.16336882 0.08251366 -0.14066845

layers.0.self_attn.linear_k.weight f4 [20, 20]
00000000: cf97 443d 861e 4ebd 0be4 43be 666d fabd
00000010: 3013 373e 9812 04be 46c4 4e3e c693 44be
00000020: e9ed ba3c 7d5e bc3d efeb 98bd 0083 8cbb
00000030: 1d76 2b3e 8bc7 9b3d 15ff 06bd b653 9e3c
00000040: 6834 28bd 4e85 f53d 552c a23d 900c 4bbe
00000050: a30e 603e 2069 733d 3183 c3bd e94a fcbb
00000060: d3df 263e a02a 633e 5ece 713d 7526 4d3e
00000070: 4d75 22bd 3c7a babd a80e 5e3e 4445 39be
00000080: b822 0e3e 8cba 7e3b ab48 12be 527b 31be
00000090: 38ef 2fbe 1b72 00bd 955c f1bd d0e8 02bd
000000a0: 2ddb 30be 5c7f 5e3e 34fa c43c ba13 89bd
000000b0: 1ed5 33be 1205 89bd 9281 0a3e 4727 253e
000000c0: 9e8e 333d 69aa 1b3e c8aa 433e 0042 483e
000000d0: e94c 3b3e 79f4 713d 769f fabd 48bc 94bd
000000e0: 1180 1bbe b4c5 97bd 1e5e c7bb cd90 233d
000000f0: 6bbf 2a3e 8a99 3bbe 184a 3f3e 03c8 843c
00000100: 52bc 423e 8eb3 88bd ac16 c43d ac29 8fbd
00000110: 7a7d 53be 727a 42be a8ba 8a3b b9e4 2b3c
00000120: f50c df3d 758b 7d3d 397c ffbd 3a41 5fbd
00000130: f483 2c3e 7f17 43be a974 43be 80d2 9fbd
00000140: b6d6 06bc 9362 bf3c fd36 28be c1f5 84bd
00000150: a184 c73d 249d c7bc 51ae 393e d816 6cbd
00000160: a0e0 1ebe 1d4f a8bd a313 5b3e 7c26 003e
00000170: 36f7 05be cdf4 c3bd cc86 63be 348c 24bd
00000180: df67 59bd cea4 89bb 655f 03be 6ffb 41bd
00000190: aba7 3d3d bf39 0cbe a6cf 66bd a28a 353e
000001a0: bc5c b53d f102 13be b18c 7d3d 4f34 463e
000001b0: e381 c2bd a70c ba3d d736 ef3d f2b5 3f3e
000001c0: d7a3 953d 5301 cfbd 17fd aabd abd3 a53d
000001d0: 7827 25be d5df f9bd 8388 403e 0ab4 d3bd
000001e0: 809d 5b3d c3b1 1dbe 6d94 07be 7fa8 cc3d
000001f0: e61c 573d c154 41be 65be 4d3e b09b 5fbe
00000200: cf98 1a3d 3d01 aa3d 0933 233c cd5d 293e
00000210: 94f3 3d3e 8fdb fdbd 0e60 3ebe 53f5 053e
00000220: f1dc 843c 49c4 363c db7b 57be 7438 c13d
00000230: 6c0d 24be e70b 633e 8594 4b3d c689 413e
00000240: 17d4 1fbe 3858 80bc 4e55 2cbd 1229 0abe
00000250: f879 4bbd 2c94 453e d788 37be f78b e5bd
00000260: 0be2 11be 1f51 4c3e faa7 613e 974f 193d
00000270: 235c b8bd bb3b 0e3e bbc7 473e c3c0 063e
00000280: 772b 1e3e 4b80 9cbd 176d 923d dbd7 52be
00000290: 2312 f53d 6e03 0c3e c56a 58bd 73a4 3d3e
000002a0: 9c92 313d d023 48be 9a41 193c ff2d d0bd
000002b0: 3766 33be 9b02 593e 9486 44bd c513 8fbd
000002c0: 46e8 bcbc d248 d3bd c59d ea3c 2065 6c3d
000002d0: aacc 56bd 46aa 56be f1ef 07bc b391 513e
000002e0: fc5e f33d 7c51 13be 66c6 153e 29ce acbc
000002f0: 89a1 ec3d 48f8 ce3d 9f0c 2c3e bf45 66bc
00000300: 220f 3c3e 4185 3a3e abe0 a43c 738d 403c
00000310: efdc 4c3e 49a1 17be 5071 a13d 8837 c3bd
00000320: 4b65 3e3e 4b15 423e 4a35 353e 8b22 cfbc
00000330: e999 b83c fb03 33be b279 5dbe c686 adbd
00000340: aaf9 703d 6d5f 343e f001 5b3b 2e88 41be
00000350: 584a 3e3e 57c6 2d3e b7eb 05be 6a27 33bd
00000360: 256b 6c3c 9dcf 0d3e fd06 703d 6f26 32bd
00000370: 0e30 26be 2ba7 5b3c 88a8 48bd af30 173e
00000380: 7964 1d3c e489 f3bd 6083 053e 4659 52be
00000390: 1c8f 243e 92e5 c939 475a 443c 9bc8 b43c
000003a0: 6b62 74bd a6e9 36be d26a 4c3e b82d 68bd
000003b0: c370 b8bc 55cb 1a3e 371d 29be e1bb 8cbd
000003c0: c8c8 4f3e 3fa1 053e 02b7 5b3d aa78 f83d
000003d0: 88e6 483e ce6a ed3d a49f 563e 6f07 923b
000003e0: 2c35 e7bd bb72 15be 5f3f b33d cd2d 43be
000003f0: 4608 38be e490 4c3e b54a d9bd a11c eebd
0.04799634 -0.05032208 -0.1912996 -0.12227897 0.17878413 -0.12897718 0.2019206 -0.19196996
0.022818523 0.0919771 -0.07466876 -0.0042880774 0.16744275 0.07606419 -0.03295811 0.019327026
-0.041065603 0.119883165 0.07918612 -0.19829011 0.21880583 0.059426427 -0.09546507 -0.0076993597
0.1629632 0.22184229 0.059034698 0.20034201 -0.039662648 -0.091053456 0.21685278 -0.18092829
0.13880432 0.0038868515 -0.14285533 -0.17332199 -0.17181098 -0.03135882 -0.11785237 -0.03196031
-0.17271109 0.21728271 0.024045087 -0.06693216 -0.17561767 -0.0669042 0.1352599 0.16128264
0.043837182 0.15201725 0.19108117 0.19556427 0.18291058 0.059071038 -0.12237446 -0.07262474
-0.15185572 -0.07410756 -0.0060842177 0.039933015 0.16674583 -0.18320289 0.18680608 0.016208654
0.19017151 -0.06674872 0.09574637 -0.0699037 -0.20653334 -0.18992022 0.004233677 0.010491543
0.10891143 0.061900575 -0.124748655 -0.054505564 0.16847211 -0.19051932 -0.19087471 -0.078038216
-0.008229902 0.023362434 -0.16427226 -0.06492186 0.09742094 -0.024366923 0.18132903 -0.057638973
-0.15515375 -0.08218215 0.2139421 0.1251468 -0.13082585 -0.095681764 -0.2221939 -0.04017277
-0.053077575 -0.0042005545 -0.12829359 -0.047358926 0.04630248 -0.13693903 -0.056350373 0.17728665
0.08855578 -0.14356591 0.061901752 0.19355892 -0.0949743 0.090844445 0.11680382 0.1872175
0.073066406 -0.101076744 -0.08349054 0.08097013 -0.16128337 -0.12200896 0.18802075 -0.10337074
0.053617 -0.15399842 -0.13240214 0.099930756 0.052517794 -0.18879987 0.20092161 -0.21836734
0.037743386 0.083010174 0.009960898 0.16539688 0.18549949 -0.12395393 -0.1859133 0.13081865
0.016218634 0.011155196 -0.21043341 0.09434596 -0.16020745 0.22172509 0.049702186 0.18900213
-0.1560825 -0.015667066 -0.04207354 -0.1349223 -0.049676865 0.19294804 -0.17923294 -0.11208337
-0.14246385 0.1995282 0.22036734 0.03742942 -0.09001949 0.13889973 0.19509785 0.1315947
0.15446268 -0.076416574 0.071497135 -0.20590155 0.1196635 0.13673183 -0.0528362 0.18519764
0.04335271 -0.19544911 0.00935402 -0.10165023 -0.1751946 0.211924 -0.047979906 -0.069861926
-0.023059975 -0.10316624 0.028639683 0.057713628 -0.052441277 -0.20963392 -0.008296953 0.20465736
0.11883351 -0.14386553 0.14626464 -0.021094399 0.11554248 0.1010595 0.1680169 -0.014054715
0.18365148 0.18214895 0.020126661 0.011752474 0.20006154 -0.14807619 0.07882941 -0.09532076
0.18593328 0.18953435 0.1769611 -0.025285026 0.022534328 -0.17481987 -0.21628454 -0.084729716
0.05883185 0.17614527 0.0033417903 -0.18899605 0.18583047 0.16970192 -0.130782 -0.04373876
0.014429842 0.1384873 0.058600415 -0.043493684 -0.16229269 0.013406555 -0.04898885 0.14764665
0.009606474 -0.11891535 0.13038397 -0.20541868 0.16070217 0.0003850875 0.011984414 0.022068312
-0.05966417 -0.17862567 0.19962624 -0.056684226 -0.022514706 0.15116628 -0.16515051 -0.068717726
0.20291436 0.13049792 0.053641327 0.1213239 0.1961919 0.11592637 0.20959336 0.0044564526
-0.112894386 -0.14594547 0.087523215 -0.1906044 -0.17971906 0.19977146 -0.10609952 -0.11626554

layers.0.self_attn.linear_k.bias f4 [20]
00000000: 1815 5cbd 8e9b 163e 5567 13be a759 26be
00000010: 30fa 4c3e 102a 9e3d 78a8 a6bd 69d6 0cbe
00000020: 6346 463e 21fa 0e3d bce4 503e f09e adbd
00000030: be85 51be 2024 19ba 8a8d a6bd d90d 073e
00000040: 8f33 b43d 7f1c 3dbe c919 013e cb9d dfbd
-0.053731054 0.14707777 -0.14394887 -0.16245137 0.20017314 0.077228665 -0.081376016 -0.13753666
0.19362788 0.03490651 0.20399755 -0.084775805 -0.20461175 -0.000584187 -0.08132465 0.13188876
0.087988965 -0.18467902 0.12607493 -0.109187685

layers.0.self_attn.linear_v.weight f4 [20, 20]
00000000: ff15 febd 3982 5b3e 2b4c 0e3e fc07 ab3d
00000010: 2111 933d 4fc3 893d e362 30bd 8d9e e23d
00000020: bc1f 503d 7039 b13d 8fb7 5c3e 958f d03d
00000030: d51c dabd 0025 213e e69d cfbd 60de 97bd
00000040: b5e6 aabd 0fbb 1a3e 6070 04be 2667 9dbd
00000050: de32 ccbd feec e63d 89a0 543e 6073 503e
00000060: fbac a83d aefd 0c3e 2744 4bbe 1252 ebbd
00000070: 09d2 99bd 2a7c 373e 3b1a 293d 41ba 893d
00000080: 8b25 e93d c058 00be f018 3bbc 01ff fe3d
00000090: 4014 5f3d 9b3c 6bbc 8898 213d 7a5a 34bb
000000a0: 020a 93bc fe77 a2bc 42b4 403d ead8 513d
000000b0: bc04 3f3e 6b80 633e d4e7 20be 3e30 193d
000000c0: ca79 0cbe dd59 2ebe eb69 583e bcb2 963d
000000d0: dd9b 38be e2a6 63bd c11a acbc 8061 b93d
000000e0: 49b1 193e ebd7 4e3e a14b 0b3d d776 bb3c
000000f0: e192 aabd 68a8 473e 91e1 3dbe 2ec2 bebd
00000100: 6ed6 3dbe cb85 033e c880 3f3e d4a8 533d
00000110: 7053 443e 84dd 38be 402a e7bd cacf a7bd
00000120: 4502 1dbe 248c 52be 70d4 91bd dcf1 5fbd
00000130: f7f3 383e 29de e0bd 1765 9c3d 8e9d 32be
00000140: ebc4 fd3d 6897 bdbd c6a9 45be 6493 3a3e
00000150: ee0a 0abd bc3e 35be bbc4 05be 0114 313e
00000160: 0bf6 cfbb ab46 ffbd 32e7 92bd ec7e 49bd
00000170: 862f 59be 6130 54bd 3979 dd3b 04e0 463e
00000180: ce5a a93b ec88 34bd bf6e 3dbe fc35 e53b
00000190: 3f36 ffbd 5799 3c3e feb8 f1bc 60d9 1bbe
000001a0: 6f33 aabd 00cf 023e 3e2f 523e 1f68 57be
000001b0: e48c 173c eba8 20be 06d8 233c 29e5 083e
000001c0: 5718 f7bd a2bf 5c3e 5587 b73d 119f dc3d
000001d0: 68c3 55be 1838 5a3e fcfd 21bc af0a 7dbd
000001e0: 84a0 40be ba9e 3d3e c56b ae3d 649d f13d
000001f0: b6d9 3b3e 278e 85bd 631f 003d b99b 24be
00000200: 96b3 443e fd07 54be 7479 5fbd 4ff6 1dbe
00000210: 034b 9dbd 98cf db3d 6c09 04bd 2938 4bbe
00000220: aee8 b83d f9d3 293e 1389 e0bc e468 86bd
00000230: 5491 4c3c 50db efbd 2f66 5b3e 9345 41be
00000240: a8d7 873d 6ab5 093e 71ea 0c3e d533 813d
00000250: f1e1 5dbe fb6d 173e a241 fc3d 9619 ecbd
00000260: 0bda 64bd 2fe2 4dbd 9bb3 04be e038 4e3d
00000270: 618f 8ebd c459 13be 3495 10be f6a0 80bc
00000280: a835 243e 7824 92bc 42a8 fd3c 6d59 d53d
00000290: 5e47 113d 807b 1fbe cb4b 663d 676f e63d
000002a0: 4228 a2bd ebeb 943d 1bf0 1d3e e95c 17bc
000002b0: 17aa 56bd 57cb 8c3d 5cf7 373e 116f 003e
000002c0: 66ad ffbd 168d c4bd ba66 7cbd 229f 8f3d
000002d0: 71ac 41bc ed67 4b3d c3bb 95bd 3605 623e
000002e0: a6fe 0abe 2a1c 0c3e 6798 083d 45e5 4bbb
000002f0: d79d 0e3e 88e2 3f3e 92ee febd 8a6a e8bd
00000300: a9aa 923d 8d74 cf3b c8b9 d53c fd01 403e
00000310: cb3c 11bd 8693 2bbd 75bf c6bd 0b38 163e
00000320: ce99 273e b9b3 1d3b 745f 2a3e 9a7d 11be
00000330: 5108 bb3c b61f 353e cc90 2e3d a07e 163e
00000340: b80c f4bc 274d a23d f078 243c 16b1 273e
00000350: 2341 4f3d 06b3 61be dbdf 5b3e 7b77 e13d
00000360: fc54 56be b60c 143e a354 cf3c fa6e cabd
00000370: 2df2 8fbc e66c 1f3e b28b d33d 1e22 613e
00000380: 0e61 08be 7d60 04be 5904 52bd 3bc7 0ebe
00000390: 9a00 053e a4d0 4a3e 01ce 3a3e 1d94 3a3e
000003a0: af10 e53d 7dd2 1a3e b7f7 ff3d de3a c43d
000003b0: 693b dabc 4ec6 403d d75b 24be a759 c1bd
000003c0: 7c0b 1a3d f208 2f3e 09be a53d c15a 8b3c
000003d0: fbdf 0c3e e383 84bc a9ad 49be e7c0 a03d
000003e0: 4c12 c1bd a6b1 a2bc bb82 203e 600c 63bd
000003f0: aaf7 bcbd ef27 25be 6b36 593d dc0f 863d
-0.12406539 0.21436395 0.13896243 0.08351132 0.071810015 0.06726705 -0.043063056 0.110653974
0.050811514 0.086535335 0.21554397 0.10183636 -0.106500305 0.1573677 -0.101375386 -0.074154615
-0.08344785 0.1511042 -0.12933493 -0.0768569 -0.0997064 0.112756714 0.20764364 0.20356512
0.082361184 0.13768646 -0.19850217 -0.11490263 -0.07510764 0.17918459 0.04128478 0.06724978
0.11384114 -0.12533855 -0.01141952 0.12450982 0.05446267 -0.014357711 0.039452106 -0.0027519749
-0.017949108 -0.019832607 0.047046907 0.051232256 0.1865415 0.22216956 -0.15713435 0.037399523
-0.13718334 -0.17026468 0.21134154 0.073583096 -0.18028207 -0.055579074 -0.021008851 0.090518
0.15009035 0.20199554 0.034007672 0.022883816 -0.08328796 0.19497836 -0.18543078 -0.093143806
-0.1853883 0.12844007 0.1870147 0.05167468 0.19172454 -0.18053252 -0.112873554 -0.081939295
-0.15332897 -0.20561272 -0.07120597 -0.054674014 0.18061815 -0.10979874 0.07636469 -0.17442915
0.12391075 -0.09257394 -0.19303045 0.18220288 -0.03370183 -0.17699713 -0.13063328 0.17292787
-0.0063464693 -0.12464651 -0.07173003 -0.049193308 -0.21209535 -0.05180395 0.0067588356 0.19421393
0.0051682955 -0.04407589 -0.18499278 0.006994961 -0.124615185 0.1841787 -0.029507156 -0.1521964
-0.083105914 0.12774277 0.20525834 -0.21035813 0.0092499 -0.15689437 0.0100002345 0.13368668
-0.12065189 0.21557477 0.089613594 0.10772527 -0.20875323 0.2131046 -0.009887215 -0.061777767
-0.18811232 0.1851758 0.08516649 0.11797598 0.18344769 -0.06521254 0.031279933 -0.16075028
0.19209132 -0.20706172 -0.054559186 -0.1542599 -0.07680323 0.10732955 -0.032235548 -0.19845642
0.09028755 0.16584767 -0.027409112 -0.06562975 0.012485821 -0.117117524 0.21425699 -0.18874197
0.0663293 0.1344811 0.13761307 0.06308714 -0.21668221 0.14788048 0.12317206 -0.11528318
-0.055872004 -0.050264534 -0.12959139 0.05034721 -0.06960941 -0.14389712 -0.14119416 -0.015701752
0.16036093 -0.017839655 0.03096402 0.10417447 0.03546845 -0.15574455 0.056224626 0.11251717
-0.07917835 0.0727156 0.15423624 -0.00923846 -0.052408304 0.068747215 0.17965454 0.12542368
-0.12484245 -0.095972225 -0.061621405 0.07012774 -0.011820898 0.04965966 -0.07311203 0.220723
-0.13573703 0.13682619 0.033348467 -0.0031111997 0.13927399 0.18738759 -0.124478474 -0.11348446
0.07161457 0.0063310326 0.026089564 0.18750758 -0.035458367 -0.041888736 -0.09704486 0.14669816
0.16367266 0.0024063422 0.16637975 -0.1420807 0.022831114 0.17687878 0.042618558 0.14696741
-0.029791221 0.07924872 0.010038599 0.16376147 0.05059923 -0.22040948 0.21472113 0.11009117
-0.20930856 0.14457974 0.025308913 -0.09884448 -0.017571533 0.15568885 0.10329379 0.21985671
-0.13318273 -0.12927432 -0.051273677 -0.13943188 0.1298851 0.19806153 0.18242647 0.18220563
0.11184823 0.15119357 0.1249842 0.095815405 -0.026639657 0.047064118 -0.16050659 -0.09440928
0.03760861 0.17093256 0.08092887 0.017011048 0.13757317 -0.01617617 -0.19695152 0.07849293
-0.09427318 -0.0198601 0.1567487 -0.055431724 -0.09226926 -0.16128515 0.053030413 0.06545994

layers.0.self_attn.linear_v.bias f4 [20]
00000000: eacd bbbc f897 133e c271 123e 84e3 09be
00000010: ee7b 283e 3319 4e3e 4949 12be 593c 70bd
00000020: 30d5 41be 7b0b b53d f998 bcbb 8630 11bd
00000030: b4b9 21bc c737 123d 0544 f63c 830c 0f3e
00000040: 1895 403e 36b0 cabd db6d 4c3e e1f6 e53d
-0.022925336 0.1441344 0.14301208 -0.13465697 0.16453525 0.201268 -0.14285769 -0.058651302
-0.18928981 0.0884008 -0.0057555404 -0.035446666 -0.009870935 0.035697725 0.030061731 0.13969617
0.18806875 -0.09896891 0.19963782 0.11228729

layers.0.feedforward.linear1.weight f4 [512, 20]
00000000: 25e0 21be 93e3 10be 0645 d03d 80c8 c43d
00000010: 3b63 5bbe 64cc a83d a052 ca3d 8c2f 20be
00000020: 0570 1a3d f6c3 003d 7f58 acbd ea52 f1bd
00000030: 4394 833d 7455 0dbe abc4 ee3d 4ff1 763c
00000040: fc57 163d f521 b73d 39b1 e93c cf67 4abe
00000050: 7719 1d3e 9f1c 933d 5df4 4b3d c012 b43d
00000060: 7180 1b3e 6756 3abe f9c3 f3bd 3fe9 fe3d
00000070: afe6 eebd 648e 5abe a261 1d3e 2a36 323e
00000080: 500c ab3c 75c1 303c 3f55 2d3e 5cd2 10be
00000090: 1a7a 0fbd fba6 a0bd 937e fcbd d0ee 12bc
000000a0: 0813 8bbc 151a 24be d842 4b3e c41c 19be
000000b0: 6242 87bb 3660 08be f7c6 7e3d 36db c1bd
000000c0: 4bf0 5cbd 8209 143e 6c4a b1bd 359e ccbd
000000d0: 630a d2bd cfbe 5ebe 5f97 2f3e 520e 26be
000000e0: 872f 083e 9dd3 2bbe 02af eebd dca3 203e
000000f0: de5d 6a3c ed19 21be 8c05 a13c 01af 0ebe
00000100: ca82 2dbd 0e10 9abd cbf7 2fbe 0fc7 273e
00000110: 536e 2ebd aa30 b0bd 9fa3 a6bd 5da2 373e
00000120: 4f25 93bd 2d28 51bd 8b35 bfbd 6342 e9bd
00000130: 0213 033d 1ef6 e8bc 288e 2ebe 8dde 4a3e
00000140: 416c 5d3e 8043 513d d54e 113e c8ff 5f3e
00000150: 6186 e93d 8eab 2fbd 1458 f8bd 3284 e73d
00000160: 733c c13d fcfd 11bc 16d1 5a3e 9b89 30be
00000170: b261 54be c4ec 3bbd c8e6 6f3c 531e 64bc
00000180: e668 24be a55f 2cbe f456 0ebe 8488 0cbe
00000190: 0bbc 16be f978 613e e620 eb3b e291 2bbe
000001a0: 139d 213e 57f1 5bbe a9dd 26be 1759 27be
000001b0: 86cf 193e f489 3fbe 1182 103e 4b68 04be
000001c0: 16a3 88bd 8d42 4d3e bf51 b8bd 0fdf 563e
000001d0: d739 553e f23d a13d f2f2 013e 9cf9 59bb
000001e0: 0cd9 a9bd 4daa d4bb 462c f73c cd98 4ebe
000001f0: d1a9 53be 3e03 053e 37c0 d7bd 7e6b 7fbd
00000200: 54b9 983d e3d6 323e 663e f63d 51ec a83d
00000210: eaed e23d 3dd2 3c3e f704 4d3e 463a 0fbe
00000220: 7618 1a3d 8220 68bc 34e0 be3d dae2 ddbc
00000230: a035 553d 22e6 d23d e67a e23d 7764 13be
00000240: d9a9 313e ccb2 fbbc 4a4b e93d fd58 623e
00000250: 66a5 433d 68cb 16be 103b 2a3e d546 85bd
00000260: e223 183e ac24 c0bd eac6 cdbc 9ffc 583e
00000270: 7780 a73d a807 eebd ec18 bdbd cd34 1fbe
00000280: 50d4 873d aa24 13be ade8 aebd 5f31 17be
00000290: b9f2 cf3d 2cfb 243a 305c 33bd 86e0 f73d
000002a0: dbec 3dbd e8e1 05be 1773 cf3d d9b2 073e
000002b0: 12e6 283e ef4d 553d b0e9 b43d 1396 06bd
000002c0: 3fbb 8b3d d8f6 093e accd 233e b153 f6bd
000002d0: 4be5 d2bd c72e bfbd e42b 25be 082b 283e
000002e0: 82ea 863c 7eb6 433e 80e7 b6bb d85e ca3d
000002f0: d9ac 453e 0222 dfbd 13a5 513e f4ff 0c3d
00000300: 1e7f db3d 2643 cabd 9e17 f23d c0d3 273e
00000310: ccc2 a6b9 4c82 49be 8214 743d 056b 483e
00000320: 332e 58be effc 943d ddc5 193e 602d 7b3d
00000330: 9929 673d 7d8d 25bd 28bb 253e 4dcb 8abd
00000340: 87e1 31be 609f 5cbc 465b dcbd d58f 0abe
00000350: 9e9c 543e f9ba 433e 811e 243e b659 48bd
00000360: 151c a83d f990 89bd cdb9 fa3d 0995 aabd
00000370: 1d7f 1bbd 6db3 1bbe 25fd 0f3d c3ac 1d3e
00000380: 27b6 24be 510f 7e3d 8e00 a03d 6554 14be
00000390: af0d a5bc da7c 10bd ab1d b1bc eeb6 2f3e
000003a0: 4e23 6cbb b084 323c 2b83 88bd 12a8 9d3c
000003b0: a7a1 2bbd efd9 b63c c56a 9dbd 821a 583e
000003c0: 38a4 0d3e 7275 d9bd 3944 373e 5ad4 f13c
000003d0: c1fe de3d 9a68 053c 56ee 5a3e 7a06 a53c
000003e0: efea 45bd 224b b03c 7dc7 19be acbf 34be
000003f0: f68b 013e 1930 f0bd b182 12be 2278 55bd
-0.1580816 -0.14149313 0.10169415 0.09608555 -0.21424572 0.082421094 0.09879041 -0.15643138
0.037704486 0.031436883 -0.08415317 -0.11783393 0.06424763 -0.13802129 0.11658605 0.015072181
0.036705002 0.08942024 0.02852689 -0.19766162 0.15341745 0.071831934 0.04979359 0.08792639
0.15185715 -0.18197022 -0.11902613 0.12446832 -0.11665093 -0.2134338 0.15369275 0.17403474
0.020879894 0.010788311 0.1692705 -0.14142746 -0.035028554 -0.07844349 -0.123288296 -0.00896807
-0.016976848 -0.16025575 0.19849718 -0.1495238 -0.0041277865 -0.13317952 0.062201466 -0.09465639
-0.0539401 0.14456752 -0.08656773 -0.09991113 -0.10255887 -0.21752475 0.17147587 -0.162164
0.1329938 -0.16779943 -0.11654474 0.15687507 0.014304606 -0.15732546 0.019655965 -0.13933946
-0.04236106 -0.075225934 -0.1718437 0.16384529 -0.042585682 -0.08603032 -0.08136677 0.1793303
-0.071848504 -0.051063705 -0.093363844 -0.113896154 0.03200055 -0.02843767 -0.17046416 0.19811459
0.21623327 0.051089764 0.14190228 0.21874917 0.11402584 -0.042888217 -0.121261746 0.11304511
0.09435358 -0.008910652 0.21368822 -0.17239992 -0.20740393 -0.045880094 0.014642425 -0.0139232455
-0.1605564 -0.1683336 -0.13900357 -0.13723952 -0.1472017 0.22018804 0.0071755527 -0.16754869
0.15782575 -0.21478783 -0.16295494 -0.16342579 0.1502057 -0.18704969 0.14112116 -0.1293041
-0.06671731 0.20044918 -0.08999967 0.20983528 0.20822845 0.07873143 0.12690333 -0.003326035
-0.082933515 -0.006490028 0.030172478 -0.20175476 -0.20670249 0.12989518 -0.10534709 -0.062358372
0.074572235 0.17464785 0.1202362 0.08248199 0.11080535 0.18439575 0.20021425 -0.13987073
0.037620984 -0.014167907 0.09320107 -0.02708571 0.052053094 0.102978006 0.11058597 -0.14393793
0.17349948 -0.030724905 0.113913134 0.22104259 0.047765158 -0.14726031 0.16624093 -0.06507651
0.14857438 -0.093819946 -0.025119264 0.21190117 0.081787996 -0.11622554 -0.09233269 -0.15547486
0.06632292 -0.14369455 -0.08540473 -0.14764927 0.101537175 0.0006293531 -0.04378909 0.12103371
-0.04636846 -0.13074458 0.101293735 0.13251819 0.16494015 0.052076276 0.08833635 -0.032857966
0.06822824 0.1347307 0.15996426 -0.120276816 -0.102976404 -0.09335094 -0.16130024 0.16422665
0.016469244 0.19112584 -0.005581796 0.09881371 0.19304217 -0.10895158 0.20473127 0.034423783
0.10717605 -0.09876089 0.11820911 0.1638937 -0.00031807122 -0.1967861 0.05958987 0.19572075
-0.21111374 0.07274806 0.15016885 0.06132257 0.056436155 -0.040418137 0.16184676 -0.06777058
-0.17371188 -0.013465732 -0.107595965 -0.1353143 0.2076287 0.19114293 0.16027261 -0.04891368
0.08208481 -0.067171045 0.1224247 -0.083292075 -0.03796302 -0.15205164 0.035153527 0.15397935
-0.1608511 0.062026326 0.07812606 -0.14485319 -0.020148126 -0.035275318 -0.021620592 0.17159626
-0.0036031785 0.010895893 -0.06665643 0.019245181 -0.04190221 0.022320716 -0.0768638 0.21103862
0.13832176 -0.10618104 0.17897119 0.029520202 0.10888434 0.008142615 0.2137998 0.02014469
-0.048319753 0.021520201 -0.15017505 -0.17651242 0.12651047 -0.11727924 -0.14307667 -0.05211652

layers.0.feedforward.linear1.bias f4 [512]
00000000: 7f91 f8bd 8ac2 e0bd 87ba 47be e584 293e
00000010: a392 38be 4ad7 46be 5792 be3a 81e3 fe3d
00000020: 89ea 19be 9172 073d d274 87bd eda4 3cbe
00000030: 49b5 423c c46a 4f3e b1e6 0d3e 990d f5bd
00000040: 5a52 053e b3fb d03d 839b 04be f015 0e3e
00000050: e5bb 8bbb 3bc8 4fbd f61e a0bd f374 0bbe
00000060: deb3 183d e337 06be b33d 283e 6178 523c
00000070: f3c9 9c3d b891 0fbe 52f1 0d3e 93d4 463d
00000080: 7dfd 5e3e f862 0f3e 932c 4d3e df0f 173e
00000090: 031f 3a3e 58da a0bd 9a3d 28be 7fd9 75bd
000000a0: 16d4 fa3d d396 f93d 456f 273e cabf 943d
000000b0: 7fbf 55bc 8f48 4cbe 28c8 85bd a4ea de3d
000000c0: 930a 3f3e 54bb 533e 8c73 09bd 2e17 3dbe
000000d0: 030d e43d 37e1 ef3d adc6 9e3d d81d 1cbe
000000e0: 3faa 143c 94db 06be 31b2 2f3e 5d6c a93c
000000f0: 51dc 643c 0b90 cf3d 8e25 80bd 59ea 9dbd
00000100: 7030 373e 535b 803a d3c8 bdbb 6b8d 4ebe
00000110: 4c0d 563e 8cd7 23be 74e9 343e 8000 1dbe
00000120: c836 9bbd 6a18 45be 0501 55be 143b d43d
00000130: e2d8 433d 7a5a 39be 49a2 eab9 da61 31be
00000140: b3de 843d f61c c83d 7f65 76bd 1c67 34be
00000150: 1911 3abe 3fbb 4fbe f42b e13d a6e9 bbbd
00000160: 207e 5dbe 46ac 17be 6c30 23be 01f3 203e
00000170: 04cb b2bd 14b5 193d eaae 4c3e ffd6 873d
00000180: 0002 e9ba ad5b 523e a124 033e 1095 0f3e
00000190: 621a 273e f728 2a3e 80b6 153c 08fd 0ebd
000001a0: d4a6 48be 7b4c 753c fb10 993d 984d e5bb
000001b0: 4da1 af3c 629e 07bd 5059 adbd 4c8d 943c
000001c0: 005b bc3d ddab f3bd e56e 043e 6106 343e
000001d0: d598 edbd 9097 4abe d377 263d d223 1b3e
000001e0: 3348 dc3c d17b 0a3e 6773 08bd 5a06 debc
000001f0: e11b d83d 8d3b 533e d094 7e3c f841 b03c
00000200: 7f8d 6b3c de32 8abb 6027 143e 57cc 4abc
00000210: 3b20 b9bd a529 203d 2229 f3bc 5cf9 553e
00000220: e667 39bd 533e 903d a8bb 31be da7b 4dbe
00000230: a08a dbbd dc5d 193e 681b 2c3e 1ee2 29be
00000240: dd5b 623e ec70 0dbe e144 3ebe 735e 273e
00000250: 6b1d de3d 38e3 12bd c7c3 c33d fc02 4cbe
00000260: 1114 afbd 211f 3f3d 9a51 91bd 502c 1cbd
00000270: 55e1 e0bd 4ff9 643d 65e0 ce3d d74c 963c
00000280: e447 a2bd 8fb2 a23c 37c1 933d 2097 5fbe
00000290: adb0 53be ce36 193e 13f7 0dbe e20a 04bd
000002a0: 9d63 31be 2261 7f3d e0bb 523e 5b28 613e
000002b0: 8533 98bd 3c5c 1b3e ebff ef3c bc81 25be
000002c0: 730d 563c f888 1abe 8d8e 5dbe 6dc4 73bc
000002d0: 1ded e3bd db9e 2cbe daeb d03c 4872 4cbe
000002e0: 6858 2dbe 5de4 2c3c 210b c2bd c062 b8bd
000002f0: 9c22 fa3d 57da 53be 7791 573e 2886 d7bd
00000300: 5965 b33d d578 133e b1de bdbd f577 9e3d
00000310: 9e7d 873d 54aa d7bd 1b3f c53d 98cd 213e
00000320: a7ac 183d ede8 be3b 4d28 333d 8b1b ef3d
00000330: aba7 1c3e b141 9d3b 8564 c3bd 1a7b 7d3d
00000340: 07fd 193e 3397 5dbe 3b0b aabd 83bd 5fbe
00000350: c7de 363e a0aa e93d ce22 4a3d 9639 5dbe
00000360: e78c e4bd 7cba e4bd b94f 373d d244 9ebc
00000370: 27ee 54be 09d3 053e b705 493c 7d8e a4bc
00000380: 2610 b4bd ef7d 3bbe 571d 31be ec6a 41be
00000390: df9f d6bd 1dbc 323e b2f0 de3d 396b 4b3e
000003a0: c7f5 46be 8821 62bd 5b44 173e a46a 1cbe
000003b0: 7595 9e3d 0b0a 033e 0102 e4bd e028 853c
000003c0: 2b2f 493e 6f84 ffbd 14df 103e fa26 c73d
000003d0: e685 1cbe e3ab 04be 28b0 27be 57d8 32be
000003e0: afad 333e c9cc 1dbe 2226 01be e25d 25be
000003f0: 868f 3abe cbdd d3bd 2576 1cbe 4892 00be
-0.12137126 -0.109746054 -0.19504748 0.16554601 -0.18024687 -0.19418064 0.0014539462 0.12445737
-0.15030874 0.033068243 -0.066140786 -0.18422289 0.011884042 0.20255572 0.13857533 -0.11965484
0.13019696 0.10204258 -0.12949948 0.13875556 -0.004264342 -0.050728064 -0.07818405 -0.13618831
0.03728091 -0.13107257 0.16429786 0.012846083 0.07655706 -0.14020431 0.13861588 0.04854257
0.21776386 0.14002597 0.20036535 0.14752148 0.18175893 -0.07854146 -0.16429749 -0.060021874
0.122474834 0.121869706 0.1635104 0.07263143 -0.0130461445 -0.19949554 -0.065323174 0.10884598
0.18656377 0.20676929 -0.03355746 -0.18465874 0.11135294 0.11712878 0.07752738 -0.1524576
0.009073793 -0.131697 0.17157818 0.020681554 0.013968543 0.10134896 -0.06257163 -0.07710714
0.17889571 0.0009792842 -0.0057917624 -0.20171134 0.2090351 -0.16000193 0.1766718 -0.15332222
-0.07578808 -0.19247594 -0.2080117 0.10362831 0.047814257 -0.1810092 -0.0004475287 -0.17322484
0.06487789 0.09771149 -0.060155388 -0.17617458 -0.18170585 -0.20286272 0.109947115 -0.09175424
-0.21630144 -0.14811811 -0.1593644 0.15717699 -0.087301284 0.037526205 0.199886 0.06632804
-0.0017777085 0.20542784 0.12806942 0.14021707 0.16318658 0.1661719 0.00913775 -0.03490928
-0.1959489 0.014971848 0.07473942 -0.0069977753 0.021439219 -0.03311003 -0.08464301 0.018133782
0.091970444 -0.11898015 0.12932928 0.17580558 -0.11601416 -0.19784379 0.040641617 0.15150383
0.026889896 0.13523795 -0.03331318 -0.027102638 0.105521925 0.20628186 0.015538409 0.021515831
0.014376997 -0.0042174896 0.14468145 -0.01237782 -0.090393506 0.039102215 -0.0296827 0.20895904
-0.0452651 0.070431374 -0.17356741 -0.20066777 -0.107198 0.14977211 0.1680733 -0.16590163
0.22105356 -0.13812608 -0.18580963 0.16344623 0.10845455 -0.035861224 0.09558826 -0.19923013
-0.08548749 0.046660546 -0.070956424 -0.038128197 -0.10980479 0.05590182 0.101013936 0.018347187
-0.07923868 0.019860534 0.07214587 -0.21834993 -0.20672865 0.14962313 -0.13863783 -0.03223694
-0.17323156 0.062348492 0.20579481 0.2198805 -0.074317016 0.15171903 0.029296836 -0.16162771
0.01306473 -0.15091312 -0.2163641 -0.0148783745 -0.1112921 -0.16857474 0.025503088 -0.1996547
-0.16928256 0.010552493 -0.09474779 -0.0900321 0.122136325 -0.20688759 0.21051584 -0.10523635
0.08759565 0.14401563 -0.09270991 0.07737724 0.066157565 -0.105305344 0.09631177 0.15801084
0.03727403 0.0058261068 0.043739606 0.11675175 0.15298335 0.004799091 -0.09540657 0.061884977
0.15037929 -0.21639709 -0.08302923 -0.21849637 0.1785842 0.11409497 0.0493496 -0.21603999
-0.111596875 -0.111683816 0.044753764 -0.019319925 -0.20793973 0.13068785 0.012269429 -0.020087475
-0.087921426 -0.18309759 -0.17296349 -0.18888444 -0.10479712 0.17454572 0.10885753 0.19865121
-0.19429694 -0.05520776 0.1477217 -0.15275055 0.077433504 0.127968 -0.11133195 0.016254842
0.196469 -0.124764316 0.14147598 0.09724231 -0.15285453 -0.12956195 -0.16375792 -0.1746534
0.17546724 -0.1541015 -0.12612203 -0.16149095 -0.18218812 -0.10345038 -0.15279444 -0.12555802

layers.0.feedforward.linear2.weight f4 [20, 512]
00000000: 080b b6bc 23f0 0f3d 6a96 84bc 13dd 813c
00000010: 8f09 1cbd 3fef 303c 5edf d33c 3a1f 0d3d
00000020: 1d40 023d 4f4b d2bc c037 5a3b 1a0a e03c
00000030: 4dfb 8ebc 436b 0e3d 68fa 97bc e466 5cbb
00000040: ce93 4c39 13ea 4d3c 5b6a ecbc c984 bcbc
00000050: 4fcd 00bd 7a13 d53c 700c 433c 259c 30bd
00000060: 455e 18bd 2c00 c63b e8f2 893c 111e b0bb
00000070: 4a64 89b9 990d abbc c2b1 e8bc eab9 1b3d
00000080: 0d25 293d 1356 cebb f531 0abc 5537 ab3b
00000090: a693 29bd 5b6d c93c 8078 8ebc 81db 2a3c
000000a0: f945 df3c 76c0 26bd ceec 9bbc 9746 d53c
000000b0: bbb7 f93c f567 a8bb 6708 dabb dd5a 2c3d
000000c0: 229e a03c 2876 15bd a133 a5bc 9378 05bd
000000d0: 04b9 303a 67dd 26ba 7853 353b 5709 5c3c
000000e0: e684 133d 53fd 14bd c7e1 fb3c 2b6f 30bc
000000f0: edca 0a3d 237c f4bc 9fb2 f83a c3ea 223d
00000100: 6898 bd3c 0665 0ebd 5b8e 1a3d bdd1 d5bc
00000110: be99 ab3c 6a02 1bbc f595 02bd dc5b 2bbd
00000120: 7b25 b13c 3c9c b93b c445 233d d6cf da3c
00000130: ace8 e73c 34aa a6bc 8937 5abc 9ff6 db3c
00000140: f62e ee3c 5677 debc 03f7 303b 4095 58bc
00000150: 6b83 8dbc 0b17 253d cf98 47bc 5ff5 303d
00000160: bd11 b93c 7419 963b 4ee7 233d 2391 a83c
00000170: f23b a43c 8c78 2dbd 60ff 64bc 147b 8535
00000180: 46fe 17bd 67ae e23c 6015 b9bc 043d bc3c
00000190: b9bd 153b 2c45 30bd 7efd 1c3d 8670 d3bc
000001a0: b971 1bbd cad5 a63c 9b4a 243d e26b 093c
000001b0: 3e63 c23c 056b 783c 0d48 f2bb 63b8 333b
000001c0: 5b77 99bc dbb8 803c fe14 24bd 64e3 c1bc
000001d0: 6aa8 19bd 6c14 04ba 1e90 43bc f8c5 0a3c
000001e0: f963 003d 8bb5 4c3c 81c5 693b 06ef 443b
000001f0: 478d 963c 30e1 8cbc 74e2 d8bc 4226 fcbc
00000200: 37c1 cdbb 4fa7 9fbc 5fbf 14b9 b7d8 daba
00000210: c6be 3dbd c591 26bd 2c35 143d c1dc 45bc
00000220: ec92 f739 5dd4 f6bc c133 97bc b144 b1bc
00000230: 5849 f1bc fc46 d6bc 046c 28bd 6e5d db3c
00000240: 7969 0abc f1b4 313d a5c5 bf3c a3dc 6c3b
00000250: 4ada 82bc 22be 48bc e8e1 af3c 34e1 26bd
00000260: 9609 09bd 3f61 14bd 0f97 313d bb15 12bd
00000270: 4e0c c9b9 a972 a4b8 5bff b1bc 62f7 d2bc
00000280: 4382 fb3b 6cdd d23c 72e3 12bb 012a a4bc
00000290: f632 97bc 6fda 383c 1726 cf3c 67e0 bc3c
000002a0: 237f abbc a506 233d 196f a13c 852f 59bc
000002b0: e7d8 49bc b953 12bd fce0 123d ea1a 4bbb
000002c0: 9b94 bb3c 9d98 d43b cdc3 e6bc d91b 22bc
000002d0: e364 babb 8833 c23b 0d12 ebbc 4c1a 813c
000002e0: 0034 11bd 72c1 90bc 3b30 d3bc 669f 05bd
000002f0: 56e9 94bb 5eba b03c 16e6 a6bb 4590 28bd
00000300: 9e1f 2d3d ae31 eabc 83eb 3cbd 5461 0abb
00000310: 0e64 973c 6b69 033d e26f 5e3c 1983 8cbb
00000320: d7ab e53c e0c2 28bd 4ca3 a7bc 96f0 91bc
00000330: 1c6b af3c 9024 1cbd 719f 473c 9fa8 a53c
00000340: de3e a93c 5c13 f5bc 87b9 efbc cb5d da3c
00000350: ec2e c63c 6298 12bc 1a25 75bc 7fe2 a7bc
00000360: e838 2bbd 403d 26bd fd50 643b 6a10 15bd
00000370: 6eee 193d 91d9 0bbc 571d 28bd 4f6d 33bd
00000380: 3140 4ebb c026 1b3d 0a37 31bd 0c05 77bc
00000390: 2894 153d 86b8 eebc 5631 873c 7de6 633c
000003a0: 40dc cf3c 7fd1 3d3b 07c7 953c 42a4 143d
000003b0: 755b 8bbc f967 debb 868e 21bd 51df 26bd
000003c0: bf2f 3b3c 6352 efbc b403 3cbc c264 d7bb
000003d0: 8c05 15bd 4c9f 11bc 7ea3 293d b03f 843c
000003e0: b809 3c3c 9196 b73c 4ce8 12bd a2cd dd3c
000003f0: a70f acbc d648 443c 442f 0cbd 2662 0bbc
-0.022222057 0.03514112 -0.016185004 0.015852487 -0.038095053 0.010799228 0.025863346 0.034453608
0.031799424 -0.025670676 0.003329739 0.027348567 -0.017453814 0.03477026 -0.01855202 -0.0033630664
0.00019510018 0.012568015 -0.028859308 -0.023012536 -0.031445798 0.026010264 0.011904821 -0.04311766
-0.037199277 0.006042501 0.01683946 -0.005374678 -0.00026205397 -0.020880507 -0.028405074 0.0380191
0.0412951 -0.006296882 -0.008434762 0.005225102 -0.041400574 0.024588278 -0.017391443 0.01042831
0.027255045 -0.04071089 -0.019033816 0.026034636 0.030483117 -0.005139346 -0.0066538337 0.04207884
0.019606654 -0.036489636 -0.02016622 -0.03258569 0.00067414367 -0.0006365389 0.002766816 0.013429961
0.036015414 -0.0363744 0.030747307 -0.010768692 0.03388493 -0.02984435 0.0018974132 0.039774667
0.023143962 -0.034764312 0.037733417 -0.026100988 0.020947333 -0.009461025 -0.03188129 -0.04183565
0.021624317 0.0056643765 0.039861456 0.026710432 0.028309189 -0.020344831 -0.013318905 0.026850997
0.029075127 -0.027156513 0.00270027 -0.013219178 -0.017274579 0.04030518 -0.0121824285 0.043202754
0.022591466 0.004580671 0.04001551 0.02057702 0.020048115 -0.04235129 -0.013976902 9.945093e-07
-0.03710773 0.027671052 -0.0225932 0.022978313 0.002284868 -0.043034717 0.038327686 -0.025810491
-0.03795025 0.020365614 0.04011021 0.008387538 0.023728963 0.015162234 -0.007393843 0.0027423135
-0.018733671 0.015713146 -0.040059082 -0.023667999 -0.037514128 -0.00050384435 -0.011936216 0.008470051
0.03134534 0.012494455 0.00356707 0.0030049696 0.018377913 -0.017197222 -0.026475169 -0.030779961
-0.0062791365 -0.019488959 -0.00014185671 -0.0016696666 -0.046324514 -0.04066636 0.03618352 -0.012076558
0.00047220977 -0.03013056 -0.018457295 -0.0216392 -0.029453918 -0.026156895 -0.041118637 0.02677795
-0.008447998 0.04338545 0.023409674 0.0036142252 -0.015973229 -0.012252362 0.021470025 -0.040742114
-0.033456407 -0.036225554 0.04335695 -0.035665255 -0.00038346875 -7.8414865e-05 -0.021728208 -0.025752727
0.0076754405 0.025740348 -0.00224134 -0.02003956 -0.018456917 0.011282547 0.025286717 0.023056222
-0.020934647 0.03980126 0.019706296 -0.013255958 -0.01231978 -0.035724375 0.035859093 -0.0030991384
0.022898009 0.0064879195 -0.028169537 -0.009894335 -0.005688296 0.005926553 -0.02869513 0.01575961
-0.03544998 -0.017670367 -0.025779834 -0.032622717 -0.0045444174 0.021573242 -0.0050933463 -0.04115321
0.04226648 -0.028588142 -0.04612304 -0.002111514 0.018480327 0.032082956 0.01357648 -0.004288089
0.028036041 -0.041201472 -0.020463608 -0.017814916 0.021413378 -0.038120806 0.01218401 0.020222006
0.02065986 -0.029916458 -0.029263271 0.026656052 0.024192296 -0.008947464 -0.014962459 -0.020493744
-0.041802317 -0.040585756 0.0034838312 -0.036392607 0.0375809 -0.008535759 -0.041043606 -0.043805417
-0.0031471367 0.03787875 -0.04326538 -0.015076887 0.036518246 -0.029140722 0.016503017 0.013909933
0.025373578 0.002896398 0.01828338 0.03628946 -0.017011384 -0.006787297 -0.03944256 -0.040740315
0.011424958 -0.02921409 -0.011475492 -0.0065732906 -0.036382243 -0.008888077 0.041415684 0.01614365
0.0114769265 0.022410663 -0.035866067 0.027075592 -0.021003557 0.011980256 -0.034224764 -0.008507287

layers.0.feedforward.linear2.bias f4 [20]
00000000: 100a b73a c6bd 303d 6c4a be3a 3d38 063c
00000010: 7f24 16bd 0bcd 0b3d d11f 4ebc 3718 c33c
00000020: 51a2 fdbc 3bd8 953c 002b 1a3d cf86 a6bc
00000030: 7f62 9d3b 0dcd 39bc f48c 843c 5f34 5ebc
00000040: 64df fabb a734 033d 7ad6 6bbc 9d34 01bd
0.0013964791 0.043149732 0.0014518029 0.008192119 -0.0366559 0.03413109 -0.012580828 0.023815257
-0.030961188 0.018291583 0.037638664 -0.020327954 0.0048030014 -0.011340392 0.016180493 -0.013562291
-0.007656025 0.032032635 -0.014394397 -0.031544317

layers.1.self_attn.linear_q.weight f4 [20, 20]
00000000: 1219 e83d 1168 333e ac5b cdbc bd64 bbbd
00000010: 90af 203e cf6a cd3d fe02 133e 94f2 19bd
00000020: a1e1 6bbd 5bc3 54be 04d3 e83d bd2c 0a3c
00000030: 2506 983d 4fb4 2fbe 226f 0fbd 36e5 503d
00000040: c0ab c0b8 b60e e53d dc10 e3ba 2ef5 5e3e
00000050: 730b 94bd bb92 c33d ca37 eabd 4bbf ca3d
00000060: fc40 11be 12da 2cbe a2ca ec3c 42c6 8abd
00000070: 253f 863d 8221 a53d c61e 2dbe 4849 413e
00000080: a1c4 d93c cc6d 013e 5887 203d 90df a23d
00000090: 0174 863b ecc6 7f3d a432 1e3e db16 f63b
000000a0: d4a5 a43c 6da7 c23d f296 903d 79a9 3bbc
000000b0: ba3f 51be c295 86bd f48f eb3d 39de 143e
000000c0: b97e 4d3d abef 223d 8116 5fbe c893 9dbd
000000d0: 1c36 8fbd 114f 423b 7c44 c9bd d825 dd3d
000000e0: ff8e 4abe 0736 533e cdde c5bd 4782 483d
000000f0: 1ef8 573e c405 b73d 62da 9e3b 79f8 f53d
00000100: d097 d6bc f6c2 1bbe fb98 dbbc 8953 a13d
00000110: 9e79 b63d 965d 5c3e 78d9 06be 18c1 623e
00000120: 540c 553a 6c19 b8bd 57fc 323c edaa de3d
00000130: 01e5 56be acec a8bd cd56 19be 0759 d83d
00000140: 52fd febd feb3 a5bd 918a 4b3e d4eb 12bb
00000150: 7ee2 253e 49b6 083d 6a1f 6f3d 77bf d7bd
00000160: 5a50 60be bfa8 5c3e 071b dd3d 3bfa 0ebe
00000170: 9a06 3a3e 131e 66bb 6a9d 463e 248e 2ebd
00000180: b8c4 053e 4d61 a1bd bc48 4cbe f591 0a3e
00000190: 7d6e c5bd bd50 a6bd 03d3 5cbd 6e8d 483e
000001a0: f3f0 053e 5c3d 37be 84be 0bbd 37f8 b7bd
000001b0: 8d6a 373e 863d ab3d 6765 523d 5f01 33be
000001c0: 8232 603d 8d9b 3d3b e668 d23d f290 3cbe
000001d0: e69c 3a3e 62b8 3ebd d87b 293e 418c 573e
000001e0: 0c70 473e 5652 1ebe b43b 323e 6d42 d63d
000001f0: ea16 c83d 894b ddbd f2db ccbd 8cf4 66bd
00000200: 1fe3 1b3e 3701 f5bd 6abd 08be 2d6f 013c
00000210: f9c1 14be 8db1 e83d 76f9 58be 259e 33bc
00000220: cfa1 92bd 080c d63d 052e 023e 35c5 823d
00000230: 4159 443e 0c0a 263e 032a 043e d451 563e
00000240: d8da 503d f608 63be 6fdd c93c 6b60 143e
00000250: 6fad b3bd f76a 7b3c 9e84 4c3d 74ed 4dbe
00000260: 9cb5 253d 8bf9 38be eed2 e83d 8857 49be
00000270: 95fd 0b3e 59b8 4bbd 8676 353e 9ec8 b3bd
00000280: e311 ba3c a3c0 a2bd 999f 5c3d 2025 523e
00000290: 4565 4a3d ce38 5e3d de72 393e 515a 0a3e
000002a0: 113d 5b3e f694 31be 056a 403e f159 9abd
000002b0: 20d9 06bd 6d3b 39bd fbd8 07be 3c77 84bd
000002c0: cacb 133e 03e6 5fbe 0cd2 d23d 4a98 17be
000002d0: d141 c0bc f62c 93bd 72d7 eabd daa7 56bb
000002e0: abdc b93d ab75 29be 0e0f 383e e29c dfbd
000002f0: 1021 d33b eadb 24be bb36 04be a687 3bbe
00000300: 8b48 0a3e a988 3fbe 25de ccbc 3d57 ae3d
00000310: 4251 62bb ee9a 14be 914c 07be 3919 023e
00000320: d4de ce3d 6b98 a13b 040a 52be 0b25 123d
00000330: 6d32 e73d 6c93 30be 6121 ab3c bcfb 92bd
00000340: 1031 18be 4225 9b3d 04c0 883c ff81 5ebe
00000350: 2abd 5abc 3122 35be 27b5 08bc ae34 3d3e
00000360: a40a e8bd f95e 083e a255 63be ce71 b63d
00000370: 2ede ef3c 123c c33d 143d 4f3e 0dc4 193e
00000380: 4151 8ebd 7fe2 5dbe 3838 82bc 6908 00bd
00000390: 0aae 1cbe f929 b0bd 6f7f 57be 88e5 80bd
000003a0: f750 e83d 5a55 d6bd 0262 b6bd 5c56 bb3d
000003b0: 5591 593e fe86 6dbd 9225 2e3d 2334 0c3e
000003c0: 8536 fbbd f04c e3bb c316 21bd 7d85 633e
000003d0: 9d6a 313e da33 55be aa15 51be a24f 02be
000003e0: 929e 19be 66d7 b7bd 9db0 3fbc f2cf 213e
000003f0: 5413 2f3d 69e0 493e 9593 f7bd 2478 aabd
0.11332907 0.17520167 -0.025068127 -0.09150074 0.15691972 0.10030138 0.1435661 -0.037584856
-0.057588223 -0.20777647 0.11368373 0.008433518 0.07423047 -0.17158626 -0.035018094 0.050999843
-9.1872644e-05 0.111844465 -0.001732375 0.21773216 -0.07228746 0.09549471 -0.11436422 0.098997675
-0.14184946 -0.16880062 0.028905217 -0.06776096 0.065550126 0.08063032 -0.1690627 0.18875611
0.026583018 0.1263954 0.039191574 0.079527974 0.004103184 0.062445566 0.15449005 0.007510049
0.020098604 0.0950459 0.070600405 -0.01145398 -0.20434466 -0.06571533 0.11502066 0.14537896
0.05016968 0.039779346 -0.21785928 -0.07694203 -0.069927424 0.0029649178 -0.098275155 0.10798234
-0.19781111 0.20626079 -0.096616365 0.048952367 0.21090743 0.089366466 0.0048478106 0.12010283
-0.026195437 -0.1521109 -0.026806345 0.07877261 0.089099154 0.21520075 -0.13168895 0.22143972
0.0008127142 -0.08989224 0.01092442 0.10872445 -0.20985796 -0.082482666 -0.14974518 0.105638556
-0.12450661 -0.080909714 0.19877078 -0.0022418397 0.16199681 0.033376966 0.05837957 -0.10534566
-0.21905652 0.21548747 0.10796171 -0.13962643 0.18166581 -0.003511314 0.19395986 -0.042616025
0.13063323 -0.07879887 -0.19949621 0.1353224 -0.096402146 -0.08120868 -0.053912174 0.19585201
0.13080196 -0.178945 -0.034117237 -0.0898289 0.1791174 0.08361344 0.051366236 -0.17480992
0.054735668 0.0028931827 0.10273914 -0.18414667 0.18223915 -0.04656256 0.16551149 0.21049596
0.19476336 -0.15461096 0.17405587 0.104618885 0.097699955 -0.10805423 -0.10002889 -0.05638556
0.15223359 -0.11963122 -0.13353506 0.0079000415 -0.1452712 0.1136199 -0.21188912 -0.010962998
-0.07159769 0.104515135 0.12712868 0.063852705 0.19174673 0.1621477 0.12906651 0.20929652
0.050989956 -0.22171387 0.02464172 0.14489906 -0.08773314 0.015345327 0.04993116 -0.20110112
0.0404564 -0.18063943 0.11368357 -0.19662297 0.13670953 -0.049736355 0.17720994 -0.08778499
0.022713607 -0.07946899 0.05386314 0.20521975 0.049412984 0.054253392 0.18110225 0.13511015
0.21410014 -0.1734198 0.18790443 -0.07536686 -0.03292191 -0.04522269 -0.13266365 -0.06468055
0.14433208 -0.21865086 0.102939695 -0.14804187 -0.023468884 -0.0718631 -0.11466874 -0.0032753856
0.09075292 -0.16548793 0.17974493 -0.10918595 0.0064431503 -0.16099516 -0.12911503 -0.18313465
0.13504235 -0.18704475 -0.02500827 0.08512733 -0.0034533297 -0.14512226 -0.13212802 0.12704934
0.10101095 0.0049314997 -0.20511633 0.03567986 0.11288915 -0.17243737 0.02088994 -0.07176921
-0.14862466 0.07575466 0.016693123 -0.21729277 -0.013350764 -0.17688824 -0.008343971 0.18477127
-0.113301545 0.13317479 -0.22200635 0.08908425 0.029280748 0.09532942 0.20238143 0.15016194
-0.06949092 -0.21668433 -0.015895948 -0.03125802 -0.15300766 -0.08601756 -0.21044706 -0.062937796
0.11343568 -0.10465498 -0.08905412 0.09147331 0.21246846 -0.057990067 0.0425163 0.13691764
-0.12266258 -0.006936662 -0.039328348 0.2221889 0.17325826 -0.20820561 -0.2041842 -0.1272569
-0.15001896 -0.08976631 -0.011699823 0.15801981 0.042743042 0.19714512 -0.12088696 -0.08323696

layers.1.self_attn.linear_q.bias f4 [20]
00000000: 14d8 60be d328 f13d 0b64 b13c 8aa4 093d
00000010: eb1f 0ebe 798b 373e 1d37 50be f356 4d3e
00000020: e6ac 383e 3603 3b3e f175 29be 3f72 63be
00000030: 69fd 223c 9bae cd3d d648 52be 72cf 763d
00000040: 64c2 38be 6ffe 303e b710 cabc e66c 2bbc
-0.21957427 0.11775365 0.02165415 0.033604182 -0.13879363 0.17924298 -0.20333524 0.200527
0.18034706 0.18262944 -0.16548897 -0.2221155 0.009948113 0.10043069 -0.20535597 0.06025643
-0.18042904 0.17284559 -0.024666173 -0.010462975
